UNIDAD IV/Tarea 2 - App Reconocedor de Emociones/models/deep_emotion_best_model.pth (torch, 75461 bytes, 10 tensors)

conv1.weight f4 [10, 1, 3, 3]
0.06274194 0.1379517 0.27509883 -0.18597044 -0.07694228 0.09947495 -0.10365464 0.13269953
0.08769643 -0.433099 -0.161929 0.2668644 -0.5032099 -0.046241306 -0.13650383 0.36476576
0.41166332 0.21856138 -0.390814 0.22337537 -0.2367044 0.3627118 0.6717924 -0.046255436
-0.37773374 -0.09761868 -0.10677212 -0.3068586 -0.24808778 -0.2138082 0.12127806 0.040276807
-0.24741401 0.10125029 0.059115283 0.32235032 -0.014242045 -0.18167324 -0.19912991 -0.2541492
0.32900682 0.2971067 -0.39123845 -0.14397988 0.58526534 -0.42120987 0.44306517 0.49681097
-0.24677522 0.16671374 0.09247239 -0.44473967 0.067483306 -0.19684616 0.66955966 -0.019230448
-0.31102645 -0.039337095 -0.2502777 -0.10950774 0.21326762 -0.35895288 0.18848974 0.5464014
0.18827657 0.10717415 -0.00463691 -0.09862501 0.24062155 -0.34975144 -0.570323 -0.06062918
0.4757796 0.01796199 0.4318595 0.1418653 -0.48114228 -0.3428682 -0.12276402 -0.21767254
-0.24348958 0.34593257 -0.07341651 0.6134732 -0.25123975 0.12251496 -0.0878691 -0.10257207
-0.36111808 -0.22608298
00000000: d97e 803d 3643 0d3e c1d9 8c3e 096f 3ebe
00000010: ea93 9dbd 86b9 cb3d e248 d4bd 63e2 073e
00000020: 309a b33d 27bf ddbe b7d0 25be 73a2 883e
00000030: 5dd2 00bf 8667 3dbd a9c7 0bbe 94c2 ba3e
00000040: 89c5 d23e 8ece 5f3e c618 c8be 83bc 643e
00000050: a362 72be 5cb5 b93e 96fa 2b3f 5776 3dbd
00000060: 5166 c1be 4dec c7bd 57ab dabd 921c 9dbe
00000070: b90a 7ebe 89f0 5abe a260 f83d 4bf9 243d
00000080: 195a 7dbe 505c cf3d de22 723d 1a0b a53e
00000090: 7757 69bc 8d08 3abe b6e8 4bbe d81f 82be
000000a0: 9573 a83e 5f1e 983e 6850 c8be 766f 13be
000000b0: f3d3 153f d2a8 d7be 70d9 e23e 025e fe3e
000000c0: a5b2 7cbe 02b7 2a3e 2a62 bd3d ebb4 e3be
000000d0: b034 8a3d 0a92 49be 4368 2b3f 2c89 9dbc
000000e0: dc3e 9fbe ef1f 21bd 6624 80be 9845 e0bd
000000f0: d462 5a3e acc8 b7be 7403 413e f6e0 0b3f
00000100: 93cb 403e 1f7e db3d 38f1 97bb e9fb c9bd
00000110: 7f65 763e 9f12 b3be b000 12bf 4e56 78bd
00000120: 6299 f33e 0625 933c b01c dd3e 2345 113e
00000130: 4858 f6be 6c8c afbe b46b fbbd 8de5 5ebe
00000140: 5555 79be 131e b13e 655b 96bd 940c 1d3f
00000150: 7fa2 80be 20e9 fa3d b7f4 b3bd 4e11 d2bd
00000160: 78e4 b8be 4c82 67be

conv1.bias f4 [10]
-0.40886214 0.039283365 0.054478418 -0.15393811 0.06757457 -0.09919335 -0.059385102 -0.009218969
-0.7045533 0.025301443
00000000: 6156 d1be 98e7 203d c324 5f3d f4a1 1dbe
00000010: 8964 8a3d e225 cbbd cb3d 73bd 290b 17bc
00000020: 9b5d 34bf f944 cf3c

conv2.weight f4 [10, 10, 3, 3]
-0.052058972 0.027596453 0.007122261 0.027769407 -0.02488383 -0.0090663135 0.2695214 0.19975898
-0.037162118 -0.089673944 -0.16508979 -0.29686254 0.01878174 -0.28390467 0.37471184 -0.28769588
0.05906238 0.13106787 0.14327586 0.3282096 0.37112328 0.37274295 0.18973781 -0.18414633
-0.5984633 -0.8015369 -0.12621644 0.1995266 0.01718843 -0.0968523 0.087584175 -0.20925726
-0.055230275 0.21523847 0.16374275 0.05112603 -0.030535562 -0.17841505 -0.3203136 -0.15048741
0.10954464 -0.06736409 0.2513748 0.14668266 0.0026370045 -0.163511 -0.1185771 -0.28930545
-0.22361517 -0.07984975 0.010522132 -0.3217313 -0.23204881 0.10110981 -0.19989353 -0.05465829
-0.22518559 0.00053817505 -0.004386492 0.017822126 0.099959716 -0.01766301 0.22298831 -0.23289786
0.0510647 0.2137021 0.12934022 0.13912007 0.023481354 0.110110365 -0.21685919 -0.40073684
0.39181337 0.35397494 -0.41566217 -0.37017885 -0.16174091 -0.6393963 0.18586811 -0.06529732
-0.025823046 -0.08619305 0.018184792 0.11291272 0.14670672 0.09047515 -0.05244048 -0.03261923
-0.19900434 -0.022478718 -0.14405619 0.14549717 0.16826403 0.03872809 -0.21170916 -0.08937278
0.1928194 0.13636845 -0.05829669 -0.01516618 0.02034958 0.14318779 -0.08615818 -0.20075223
0.20331179 -0.0058597345 -0.30407327 0.11648523 -0.0085294945 -0.22100143 -0.12375559 0.11666413
0.09368584 -0.13195567 0.12270698 0.16790514 -0.03762353 -0.026424821 0.04250731 -0.05627481
-0.16304359 -0.08441884 -0.17600173 0.41140267 0.12507515 0.07713711 -0.009083339 -0.28105068
0.0009959505 0.23270392 -0.073012255 -0.19884624 0.3107994 0.28006843 -0.07209668 -0.1306802
-0.015715621 -0.06744209 0.10556362 0.12098624 0.13218388 -0.02147842 0.0011827163 -0.4531994
-0.54671293 0.0062227026 -0.21809763 -0.50157815 -0.15052943 0.05240572 -0.4556562 -0.53062403
-0.08482347 0.13053806 -0.34022364 0.055058826 0.22866876 -0.2687493 -0.045339163 0.277105
-0.053149924 -0.103793114 -0.1750597 -0.3225642 0.19595106 0.44572625 0.3400307 0.5059288
0.16271631 0.26355752 0.07260739 -0.22418779 -0.18128239 0.02900706 0.045621198 -0.115490265
0.15851167 0.33242464 0.008698935 -0.103957094 0.068134084 -0.099311434 0.008308968 -0.08078427
0.032568015 -0.062201366 -0.01698699 -0.07180265 0.07741127 -0.05597054 -0.09304061 -0.053487048
-0.010286769 -0.0120382765 0.002839845 -0.012710471 0.036092736 -0.013762654 -0.13946518 -0.016905269
-0.05171708 -0.066093795 0.019928979 -0.108721465 -0.053980917 -0.0050887056 -0.11876648 0.049359914
-0.06332314 0.006394676 -0.044132933 -0.10444336 -0.14717728 0.057352778 -0.09523208 0.041393068
-0.09775787 -0.059047762 0.04058746 -0.06670892 -0.111838244 -0.094189376 -0.100912906 -0.05019331
-0.13270703 -0.10113482 -0.009522245 0.08791458 -0.05851113 -0.03242055 -0.08034904 0.0030291718
-0.11743137 -0.15042186 -0.025810918 0.028284617 -0.006157332 0.098195724 0.0006425331 0.032252494
-0.027200723 -0.009531124 -0.08079203 -0.08956317 -0.08850849 0.062188573 0.042543035 -0.07386785
-0.015579342 -0.017637838 -0.053075857 -0.013009192 -0.07462793 -0.012906368 0.023897992 -0.06289298
00000000: ca3b 55bd f511 e23c db61 e93b ab7c e33c
00000010: 2dd9 cbbc e08a 14bc b5fe 893e 9e8d 4c3e
00000020: 4e37 18bd f9a6 b7bd 4c0d 29be 5efe 97be
00000030: 2adc 993c f45b 91be 3bda bf3e e04c 93be
00000040: 65eb 713d a836 063e e8b6 123e 170b a83e
00000050: df03 be3e 2ad8 be3e a14a 423e db90 3cbe
00000060: e434 19bf 8631 4dbf e23e 01be b350 4c3e
00000070: c0ce 8c3c 805a c6bd 555f b33d 8947 56be
00000080: 2439 62bd 7967 5c3e 2eac 273e 8769 513d
00000090: b725 fabc 6fb2 36be 2500 a4be 5f19 1abe
000000a0: f158 e03d 2ff6 89bd 33b4 803e fb33 163e
000000b0: 98d1 2c3b 6d6f 27be 8dd8 f2bd d81f 94be
000000c0: 60fb 64be 4488 a3bd 0565 2c3c f7b9 a4be
000000d0: 349e 6dbe a912 cf3d e4b0 4cbe 5fe1 5fbd
000000e0: 0d97 66be 5114 0d3a 90bc 8fbb b5ff 913c
000000f0: aeb7 cc3d 04b2 90bc 0c57 643e c77c 6ebe
00000100: 3829 513d b9d4 5a3e c371 043e 7e75 0e3e
00000110: f85b c03c 8b81 e13d 5610 5ebe 612d cdbe
00000120: c39b c83e 343c b53e acd1 d4be 1588 bdbe
00000130: 699f 25be 7aaf 23bf 3654 3e3e 9aba 85bd
00000140: da8a d3bc fb85 b0bd 46f8 943c c93e e73d
00000150: 493a 163e 094b b93d d4cb 56bd be9b 05bd
00000160: cbc7 4bbe 4a25 b8bc 7783 13be 36fd 143e
00000170: 684d 2c3e 58a1 1e3d 49ca 58be 1309 b7bd
00000180: 7372 453e 2ca4 0b3e 83c8 6ebd 927b 78bc
00000190: 2ab4 a63c d29f 123e b373 b0bd fe91 4dbe
000001a0: f730 503e 0403 c0bb 7eaf 9bbe cf8f ee3d
000001b0: 4bbf 0bbc 334e 62be 9273 fdbd 9aed ee3d
000001c0: 5dde bf3d 631f 07be cc4d fb3d 53ef 2b3e
000001d0: 211b 1abd de78 d8bc 251c 2e3d 6a80 66bd
000001e0: e6f4 26be c9e3 acbd cc39 34be 5fa3 d23e
000001f0: b313 003e 10fa 9d3d 49d2 14bc e0e5 8fbe
00000200: 8e8a 823a f049 6e3e 7387 95bd 599e 4bbe
00000210: 1921 9f3e 2165 8f3e 6da7 93bd 08d1 05be
00000220: 0cbe 80bc 141f 8abd bd31 d83d a2c7 f73d
00000230: 365b 073e 83f3 afbc 6005 9b3a c009 e8be
00000240: 61f5 0bbf d0e7 cb3b fc54 5fbe 6d67 00bf
00000250: 6324 1abe 61a7 563d c54b e9be fad6 07bf
00000260: edb7 adbd c5ab 053e cb31 aebe 5d85 613d
00000270: 2528 6a3e 8299 89be 8fb5 39bd b5e0 8d3e
00000280: bcb3 59bd 7c91 d4bd da42 33be 2327 a5be
00000290: 65a7 483e 3b36 e43e 8118 ae3e 8d84 013f
000002a0: 1b9f 263e 03f1 863e 2fb3 943d 7c91 65be
000002b0: 17a2 39be 37a0 ed3c 4bdd 3a3d 2986 ecbd
000002c0: e250 223e 9033 aa3e fa85 0e3c 75e7 d4bd
000002d0: e289 8b3d cb63 cbbd 5622 083c 3972 a5bd
000002e0: 0a66 053d dcc6 7ebd 4d28 8bbc 450d 93bd
000002f0: cd89 9e3d 5d41 65bd 138c bebd 3c15 5bbd
00000300: d689 28bc 313c 45bc b11c 3a3b 943f 50bc
00000310: fad5 133d c17c 61bc f6cf 0ebe eb7c 8abc
00000320: 4ad5 53bd 2f5c 87bd 1942 a33c 5ca9 debd
00000330: 181b 5dbd 28bf a6bb d73b f3bd 9f2d 4a3d
00000340: 90af 81bd 6e8a d13b bcc4 34bd 66e6 d5bd
00000350: a4b5 16be bfea 6a3d 0909 c3bd c78b 293d
00000360: 4735 c8bd 11dc 71bd 093f 263d b09e 88bd
00000370: 730b e5bd 5ce6 c0bd 6dab cebd 8097 4dbd
00000380: 5ae4 07be c61f cfbd 3103 1cbc 8f0c b43d
00000390: 5ea9 6fbd 69cb 04bd 0a8e a4bd 1285 463b
000003a0: dc7f f0bd 3008 1abe 6b71 d3bc 24b5 e73c
000003b0: 72c3 c9bb d71a c93d ab6f 283a 311b 043d
000003c0: 0dd4 debc 6e28 1cbc 4b76 a5bd e56c b7bd
000003d0: f043 b5bd 72b9 7e3d 9b41 2e3d 0748 97bd
000003e0: 7f40 7fbc 3a7d 90bc 1266 59bd 8224 55bc
000003f0: 87d6 98bd 3b75 53bc b9c5 c33c 09ce 80bd

conv2.bias f4 [10]
-0.03583703 -0.035605803 -0.09759549 -0.003310181 -0.044918496 -0.18991649 -0.03369173 -0.00086634303
-0.018177807 -0.08361791
00000000: d9c9 12bd 64d7 11bd 25e0 c7bd 9fef 58bb
00000010: 75fc 37bd 7879 42be 5700 0abd 4c1b 63ba
00000020: a0e9 94bc de3f abbd

conv3.weight f4 [20, 10, 3, 3]
-0.017911846 -0.05356986 -0.10665405 -0.009073855 -0.18694225 -0.16786215 -0.15209427 -0.40094948
-0.10830199 -0.05710233 0.0040507545 -0.49081644 -0.09114195 0.092022866 -0.49251464 -0.007998895
0.019932626 -0.11204322 0.1141503 0.043304842 0.14362429 -0.022362782 -0.014512895 0.029893551
-0.007594785 0.009946419 -0.009294463 0.0947399 -0.14752679 -0.012260338 -0.13333914 0.108808234
-0.19458775 -0.40769586 0.0918345 0.3734618 0.07720238 0.103918105 -0.258646 -0.010299416
-0.072893046 -0.059639085 0.23905757 -0.16272606 0.12734655 -0.021643277 0.034743004 0.15883386
0.07293433 -0.07969471 -0.10139747 -0.0014380899 -0.035913173 0.010409248 -0.06852842 -0.044215795
0.12172406 -0.3270975 -0.06827959 0.2548931 -0.74343646 -0.30570117 0.14127436 0.16201714
0.07666638 0.2687426 -0.054860774 0.26214084 0.11109089 0.10582966 0.06437525 0.23178253
-0.36698866 -0.11468583 -0.2692155 -0.46833637 -0.32009646 -0.24036138 -0.5338065 -0.48816988
0.17131475 0.022503473 -0.009725463 -0.052650638 -0.07786303 0.11224664 -0.3530405 0.39542535
0.054858007 -0.27649546 0.12394665 -0.022785502 -0.0037738706 0.22088484 0.11126595 0.02626627
-0.03453892 -0.24412572 -0.15854721 -0.07443135 0.00021889489 -0.027607864 -0.06431917 -0.09176612
-0.10997887 0.06662904 -0.07529672 -0.15253407 -0.02279781 0.12302073 0.10519722 -0.05239731
-0.069738835 0.10277835 -0.024443327 -0.024367144 0.0795127 -0.17404245 -0.0071489094 0.13103054
-0.39919376 -0.26976237 -0.023216495 -0.07095605 -0.18377097 0.074872665 -0.23441005 -0.5932819
-0.28698474 -0.43556023 -0.4828539 -0.22741495 -0.57899815 -0.80200046 -0.38566414 0.06297351
0.05992314 0.17664975 -0.09591482 0.06520481 0.12279735 -0.004481638 0.06169095 -0.016128479
-0.007579643 0.017371885 0.03835459 -0.026231712 -0.025772605 -0.011545193 -0.105855025 -0.07677379
-0.07075576 -0.40884885 -0.14631718 0.0008761207 -0.17837258 -0.09767039 -0.10066499 -0.4417822
-0.23937978 -0.00047150734 -0.12232446 0.32262975 0.16437171 0.19602868 0.012636833 0.01465313
-0.13242926 0.007513009 0.026421752 0.17439343 -0.081672035 -0.22163948 -0.06705581 -0.12059598
-0.0017995291 0.052861046 -0.038139943 -0.109266266 0.12006856 0.28102446 0.20590293 0.35721627
0.008825656 -0.19630142 -0.10666626 -0.44861367 -0.4611461 0.14217377 -0.104221284 -0.5765252
-0.29165226 -0.66087395 -1.328156 -0.22457667 -0.4937082 -0.6101767 -0.060732186 0.079970375
0.028905263 -0.015980775 -0.12757093 0.003379487 -0.11033845 -0.10963694 -0.053222593 -0.7001485
-0.3941103 -0.4089881 -0.5227779 -0.25561836 -0.46801373 -0.6998703 -0.35965466 -0.2582634
-0.13653964 -0.037404317 0.22801891 0.045334022 -0.082592785 -0.07962883 -0.21780851 -0.1274759
-0.28847125 -0.13073163 -0.13024583 -0.02816138 -0.18888274 0.004123514 -0.0944947 0.081385195
0.043028705 0.11356637 0.2846958 0.20385855 -0.03225059 0.29777408 -0.05527504 -0.18650715
-0.25261277 -0.17441218 0.13054562 -0.2695754 0.17861015 0.17035554 -0.16368051 0.17551629
-0.040502362 -0.012060356 0.17762111 0.103900135 0.27698353 0.021030843 -0.034364507 -0.054854386
00000000: ddbb 92bc 126c 5bbd 706d dabd 82aa 14bc
00000010: ca6d 3fbe 0ee4 2bbe 9abe 1bbe 4049 cdbe
00000020: 6fcd ddbd 22e4 69bd 31bc 843b 4b4c fbbe
00000030: a1a8 babd 7c76 bc3d e12a fcbe cc0d 03bc
00000040: bf49 a33c ea76 e5bd a2c7 e93d 6b60 313d
00000050: 3f12 133e 2732 b7bc 7ec7 6dbc 52e3 f43c
00000060: addd f8bb 4ef6 223c ce47 18bc fe06 c23d
00000070: 4311 17be 96df 48bc 0e8a 08be dad6 de3d
00000080: 0342 47be 83bd d0be ba13 bc3d 6336 bf3e
00000090: 481c 9e3d 04d3 d43d 406d 84be e2be 28bc
000000a0: f348 95bd 1d48 74bd 82cb 743e a9a1 26be
000000b0: 2267 023e 3e4d b1bc ae4e 0e3d 58a5 223e
000000c0: 985e 953d fb36 a3bd 7aa9 cfbd 4a7e bcba
000000d0: b119 13bd 8d8b 2a3c a158 8cbd 9f1b 35bd
000000e0: 774a f93d 5379 a7be 2bd6 8bbd 5981 823e
000000f0: da51 3ebf dd84 9cbe 3aaa 103e d2e7 253e
00000100: 4303 9d3d a198 893e b1b5 60bd 5337 863e
00000110: 9f83 e33d 39bd d83d 2cd7 833d 6658 6d3e
00000120: f0e5 bbbe 68e0 eabd 9dd6 89be c9c9 efbe
00000130: afe3 a3be 4b21 76be 8ba7 08bf 67f1 f9be
00000140: 226d 2f3e 3459 b83c 8c57 1fbc 32a8 57bd
00000150: a776 9fbd 91e1 e53d b9c1 b4be 3175 ca3e
00000160: cab2 603d d090 8dbe bed7 fd3d a9a8 babc
00000170: 0b53 77bb a32f 623e 67df e33d 5c2c d73c
00000180: af78 0dbd 18fc 79be 335a 22be 776f 98bd
00000190: 2687 6539 e329 e2bc c5b9 83bd e0ef bbbd
000001a0: 9a3c e1bd ce74 883d 2b35 9abd e431 1cbe
000001b0: 79c2 babc 4bf2 fb3d a471 d73d 909e 56bd
000001c0: 3cd3 8ebd 757d d23d 5f3d c8bc 9b9d c7bc
000001d0: 8ed7 a23d 2f38 32be 6641 eabb df2c 063e
000001e0: 2063 ccbe 4b1e 8abe 8530 bebc 6851 91bd
000001f0: 752e 3cbe d756 993d 3009 70be 53e1 17bf
00000200: aaef 92be c001 dfbe a038 f7be 77df 68be
00000210: 3939 14bf e74f 4dbf c575 c5be 41f8 803d
00000220: f771 753d ace3 343e fd6e c4bd 198a 853d
00000230: 2d7d fb3d b4da 92bb a6af 7c3d df1f 84bc
00000240: a75e f8bb 7c4f 8e3c b419 1d3d e3e3 d6bc
00000250: 1221 d3bc 0d28 3dbc 85ca d8bd 943b 9dbd
00000260: 65e8 90bd a354 d1be 2cd4 15be 77ab 653a
00000270: 4da7 36be 6a07 c8bd 7229 cebd 4731 e2be
00000280: f91f 75be a534 f7b9 3f85 fabd ba2f a53e
00000290: 0f51 283e bebb 483e b80a 4f3c af13 703c
000002a0: 899b 07be b02f f63b 6e72 d83c 3194 323e
000002b0: ab43 a7bd 76f5 62be 8e54 89bd 06fb f6bd
000002c0: 2dde ebba d384 583d a138 1cbd fec6 dfbd
000002d0: 81e6 f53d 70e2 8f3e 38d8 523e 0de5 b63e
000002e0: 7c99 103c 3d03 49be d773 dabd b1b0 e5be
000002f0: 571b ecbe 0096 113e f871 d5bd 2897 13bf
00000300: 7253 95be 092f 29bf 0401 aabf 6df7 65be
00000310: 52c7 fcbe 8a34 1cbf 50c2 78bd 82c7 a33d
00000320: bbca ec3c 1dea 82bc f4a1 02be 627a 5d3b
00000330: 20f9 e1bd 5589 e0bd efff 59bd ef3c 33bf
00000340: d3c8 c9be e366 d1be c6d4 05bf 69e0 82be
00000350: 7f9f efbe b32a 33bf a824 b8be 1a3b 84be
00000360: 0cd1 0bbe 4535 19bd ca7d 693e 2bb0 393d
00000370: 6826 a9bd 7114 a3bd 3209 5fbe 0b89 02be
00000380: 81b2 93be 83de 05be 2a5f 05be b2b2 e6bc
00000390: 7a6a 41be 8b1e 873b 7086 c1bd 48ad a63d
000003a0: de3e 303d 7c95 e83d a6c3 913e 4cc0 503e
000003b0: 3219 04bd d875 983e 1568 62bd bbfb 3ebe
000003c0: 7656 81be 1b99 32be c0ad 053e c905 8abe
000003d0: 94e5 363e af71 2e3e dd9b 27be 8bba 333e
000003e0: cee5 25bd cd98 45bc 4fe2 353e 98c9 d43d
000003f0: c9d0 8d3e e048 ac3c ccc1 0cbd feae 60bd

conv3.bias f4 [20]
0.10963447 0.2199406 0.112272054 0.021479 0.1576715 -0.08020081 -0.07202047 0.1565193
-0.0071048066 0.14556035 0.18720411 0.11999972 0.03939212 0.05386097 0.14178608 -0.013244402
0.07982923 -0.15079668 -0.06743678 0.023078324
00000000: 0988 e03d 1c38 613e e4ee e53d baf4 af3c
00000010: a374 213e 5340 a4bd 787f 93bd 9846 203e
00000020: 70cf e8bb c60d 153e 6fb2 3f3e 6ac2 f53d
00000030: a259 213d 529d 5c3d 5f30 113e 0cff 58bc
00000040: 827d a33d 726a 1abe 4b1c 8abd c10e bd3c

conv4.weight f4 [20, 20, 3, 3]
0.26742342 0.14731959 0.054558765 0.032825276 0.24067526 -0.07924544 0.061942752 0.12089806
0.2780229 0.10572167 -0.007844359 -0.22980884 0.051940896 0.14379387 -0.073030174 -0.17678362
0.08434023 -0.15898275 -0.07298587 -0.021378461 -0.07417438 -0.12546581 -0.2353033 -0.051299997
-0.18932682 0.06694217 -0.32361206 0.21771914 -0.698017 -0.73007655 0.14105001 -0.031664174
0.006585762 0.11426593 0.06693544 -0.2002678 0.15785529 0.22638181 0.15138203 -0.07718271
-0.040318497 0.087985985 -0.32353652 -0.33296093 -0.14807756 -0.10537374 0.013379736 -0.3376263
0.023997415 -0.043504912 -0.3347437 0.044813924 0.0077875233 -0.38473374 0.06319254 0.02395549
-0.5396389 -0.19583182 -0.5193851 -0.68349373 -0.44500878 -0.38503137 -0.4627371 0.115181886
0.06421417 0.07339978 0.14363587 0.03631938 0.03300093 -0.07064318 -0.1915933 -0.15663628
-0.45096305 -0.11914876 -0.107352376 -0.24427201 1.9509753e-06 -0.22175421 -0.14772895 -0.12984662
0.12830831 -0.092314586 0.15031432 0.06680378 0.051095944 -0.027933313 0.07587713 0.12876749
-0.1649058 -0.23082374 0.2862001 0.12932207 0.11636311 0.049874995 -0.30105445 -0.012454953
0.22836845 0.09653991 -0.282417 0.16663319 -0.18350786 0.0533354 0.09459553 -0.09237001
-0.016851721 -0.103298984 -0.43323115 -0.21171297 0.4564908 0.2876326 0.048196025 -0.04948715
-0.53658235 -0.6572928 -0.11223567 -0.45547202 -0.5874768 -0.012184917 0.033664644 -0.9339617
0.26382896 -0.07257192 -0.90746963 -0.116705745 -0.086863525 -0.3934953 0.3809097 0.067935795
0.18856628 0.35088798 -0.18123259 0.09891511 0.25954592 -0.10235956 -0.8371506 -0.11855761
-0.0999953 -0.10655128 -0.017462116 0.089058764 -0.08491052 -0.10926957 -0.23773696 -0.17228594
0.048914917 0.045000806 0.039471164 -0.0086017735 -0.060022797 -0.0664289 0.01586092 -0.3484487
-0.13268511 0.06124453 -0.06311308 -0.0018672596 -0.17434901 -0.015390721 0.114971325 -0.011301179
-0.13283916 0.09763109 -0.008778943 -0.013932949 0.14935003 -0.00199862 -0.12606092 0.018776475
0.04565687 -0.033924535 0.11331901 -0.036793087 -0.089038305 -0.90055424 -0.15041897 0.059872605
-0.37582844 -0.16089189 0.105070524 0.10392765 -0.24712767 0.07065833 0.24351138 -0.12824325
-0.108833514 0.17212494 0.30291116 0.3621379 0.15877065 0.026288662 -0.20919946 -0.0003261168
-0.07040377 -0.04378108 0.016359461 -0.015068519 -0.16701744 -0.13449594 0.1631594 0.07097634
0.029345741 0.27986762 -0.0027149993 0.0081205275 0.04990427 0.044645727 0.3667178 0.25062573
-0.13582377 0.029901706 0.072945796 -0.1326994 -0.09631087 -0.26185176 -0.38788077 -0.011934258
-0.0076948055 0.028042762 0.0046757935 0.017611228 0.080254555 0.09149842 0.30741388 0.34238407
0.41066116 0.018960642 0.0671221 0.024683094 -0.037158486 0.02051813 -0.12538734 -0.7550234
-0.33802605 -0.66503555 0.15831947 -0.026979761 -0.2555461 -0.17730293 -0.12948799 -0.03885279
0.08349569 0.15533759 0.03492603 0.037676737 -0.706561 -0.021429842 -0.008176667 0.004755314
0.016008774 -0.2278232 0.099558406 0.20098482 0.0731694 0.028730756 -0.05817894 0.14425208
00000000: b9eb 883e f2da 163e 0379 5f3d cc73 063d
00000010: 9373 763e 6f4b a2bd afb7 7d3d 6799 f73d
00000020: 0459 8e3e 9a84 d83d a085 00bc 0253 6bbe
00000030: fabf 543d b33e 133e d890 95bd c406 35be
00000040: 92ba ac3d 60cc 22be 9e79 95bd e221 afbc
00000050: bde8 97bd 1c7a 00be 59f3 70be f21f 52bd
00000060: e4de 41be fa18 893d 7bb0 a5be c4f1 5e3e
00000070: 3eb1 32bf 4ce6 3abf 6a6f 103e 4bb2 01bd
00000080: 60cd d73b 4204 ea3d 7315 893d 0113 4dbe
00000090: d1a4 213e a2d0 673e e403 1b3e f811 9ebd
000000a0: 0225 25bd ff31 b43d 94a6 a5be db79 aabe
000000b0: a5a1 17be 30ce d7bd ae36 5b3c 5bdd acbe
000000c0: 3a96 c43c 3532 32bd 8763 abbe ce8e 373d
000000d0: 7b2e ff3b d2fb c4be 176b 813d 4e3e c43c
000000e0: c625 0abf 2388 48be 6cf6 04bf 72f9 2ebf
000000f0: 31d8 e3be d522 c5be e1eb ecbe 7be4 eb3d
00000100: b882 833d a052 963d 4815 133e a1c3 143d
00000110: fc2b 073d 5fad 90bd 0931 44be 4365 20be
00000120: a1e4 e6be 4404 f4bd 90db dbbd 7122 7abe
00000130: 80ed 0236 8913 63be 4246 17be 83f6 04be
00000140: 4163 033e 6e0f bdbd ffeb 193e 6cd0 883d
00000150: fb49 513d 67d4 e4bc 7865 9b3d a0db 033e
00000160: 11dd 28be 0f5d 6cbe d288 923e 016d 043e
00000170: c84f ee3d b949 4c3d cf23 9abe dc0f 4cbc
00000180: 6bd9 693e b7b6 c53d f698 90be e4a1 2a3e
00000190: 7ce9 3bbe 3876 5a3d 4dbb c13d 7d2c bdbd
000001a0: 9f0c 8abc 6b8e d3bd 79d0 ddbe 49cb 58be
000001b0: 2ab9 e93e 9544 933e 3269 453d 0ab3 4abd
000001c0: 765d 09bf 5744 28bf d1db e5bd a133 e9be
000001d0: e164 16bf 3fa3 47bc f0e3 093d 1d18 6fbf
000001e0: 9714 873e 96a0 94bd ee4f 68bf 6c03 efbd
000001f0: 81e5 b1bd 3778 c9be 9906 c33e ec21 8b3d
00000200: 8517 413e 97a7 b33e 0995 39be 0194 ca3d
00000210: 34e3 843e e4a1 d1bd 804f 56bf 55ce f2bd
00000220: 56ca ccbd 8f37 dabd b60c 8fbc 7164 b63d
00000230: 91e5 adbd b9c8 dfbd 5171 73be ba6b 30be
00000240: 025b 483d c452 383d 84ac 213d 74ee 0cbc
00000250: 77da 75bd e00b 88bd c3ee 813c de67 b2be
00000260: 9bde 07be 8bdb 7a3d 6e41 81bd d6be f4ba
00000270: 8c88 32be 5d29 7cbc 1676 eb3d 9528 39bc
00000280: fd06 08be cff2 c73d 8ed5 0fbc 0647 64bc
00000290: 37ef 183e 48fb 02bb 1d16 01be 1fd1 993c
000002a0: b302 3b3d 74f4 0abd cc13 e83d 59b4 16bd
000002b0: b759 b6bd b98a 66bf 6e07 1abe fa3c 753d
000002c0: 966c c0be d8c0 24be 372f d73d 05d8 d43d
000002d0: 090f 7dbe 51b5 903d 0c5b 793e 3352 03be
000002e0: 1be4 debd 8541 303e 2c17 9b3e 246a b93e
000002f0: c694 223e 525b d73c 6238 56be a8fa aab9
00000300: da2f 90bd ca53 33bd 4704 863c f3e1 76bc
00000310: 9f06 2bbe 4eb9 09be 4213 273e 0b5c 913d
00000320: 7b66 f03c cf4a 8f3e 21ee 31bb f60b 053c
00000330: 6b68 4c3d 70de 363d 6fc2 bb3e 0452 803e
00000340: 6315 0bbe 6cf4 f43c 9b64 953d 5ae2 07be
00000350: a23e c5bd 6f11 86be 4f98 c6be e887 43bc
00000360: b524 fcbb efb9 e53c 6637 993b 6c45 903c
00000370: 805c a43d 8663 bb3d 5a65 9d3e f74c af3e
00000380: 2e42 d23e 5953 9b3c 5077 893d 3334 ca3c
00000390: 7f33 18bd a315 a83c 8a65 00be 3749 41bf
000003a0: c011 adbe c53f 2abf 801e 223e a904 ddbc
000003b0: f0d6 82be e68e 35be 8098 04be 1a24 1fbd
000003c0: caff aa3d d110 1f3e 990e 0f3d ec52 1a3d
000003d0: 2fe1 34bf a38d afbc 6df7 05bc 77d2 9b3b
000003e0: d524 833c 7c4a 69be 47e5 cb3d f7ce 4d3e
000003f0: d7d9 953d c35c eb3c 0a4d 6ebd d1b6 133e

conv4.bias f4 [20]
-0.029843865 -0.13622625 0.029232545 -0.11878894 0.1461747 -0.12460197 -0.067383826 -0.13681343
-0.016309282 0.09326686 0.089334585 0.04272559 -0.068807155 0.054176215 -0.22679433 -0.061669253
-0.13637178 -0.029463155 0.016854964 -0.017764064
00000000: 1f7b f4bc e57e 0bbe 1779 ef3c 9e47 f3bd
00000010: d2ae 153e 512f ffbd 8800 8abd d218 0cbe
00000020: 0b9b 85bc b202 bf3d 0df5 b63d 0701 2f3d
00000030: c4ea 8cbd e1e7 5d3d c63c 68be e698 7cbd
00000040: 0ba5 0bbe b75c f1bc 6c13 8a3c f185 91bc

fc1.weight f4 [7, 1620]
0.06704207 0.1424315 0.19723289 0.3963147 0.19384551 0.027256567 -0.0072268792 -0.07391278
0.013494983 -0.0622826 -0.35221836 0.19553381 0.38752878 0.2096132 -0.18325058 0.09986939
0.15682906 0.090113595 -0.28155264 -0.20013313 -0.38116527 -0.12536491 -0.018719118 -0.007279208
-0.0279209 0.08032723 0.0026092136 0.09276965 -0.1911317 -0.26208666 -0.15219985 -0.23847829
-0.029201968 -0.20041518 0.03214308 -0.16404334 -0.16295084 -0.25086182 -0.05329217 -0.42075345
0.0035045524 0.1933489 -0.24350043 -0.23911966 -0.09190242 -0.12845014 -0.2715846 -0.1062077
-0.3613584 -0.4904749 -0.09311203 -0.52739954 -0.22485533 -0.12512003 -0.10140098 -0.21952781
-0.027618669 -0.1524732 -0.3466304 -0.41698983 -0.42401618 -0.06312659 -0.030557375 -0.07069406
0.1376307 0.0822637 0.23712648 -0.0030526647 -0.13606861 -0.22030662 -0.042704344 -0.06050687
-0.07730002 -0.07725152 0.0453458 0.030857673 -0.6071169 -0.6299324 -0.2744326 -0.0658115
-0.103387095 -0.14718173 0.14118268 0.09529221 0.09125481 0.0663294 0.21815106 0.10178573
0.07431718 0.095303625 -0.13914718 -0.007681908 -0.14312348 -0.19680767 -0.1427809 -0.23028146
0.10057992 0.014216388 0.032252893 -0.10296595 -0.040625412 -0.008143025 -0.13608705 -0.10186547
-0.030792056 0.002573317 0.079573095 0.05749645 -0.3965402 -0.1145766 -0.06447336 -0.14063069
0.014837883 -0.103048876 -0.10789336 -0.09245768 0.0024471558 -0.069845825 0.054863516 -0.14918303
-0.14249504 -0.19993253 -0.32719228 0.005022683 -0.18234034 -0.021350402 -0.09815848 0.086045384
-0.0028533607 -0.09572018 -0.03181276 -0.059880767 -0.05402538 -0.1473919 0.04147122 -0.16274449
0.12411395 0.033008203 0.07736739 -0.07868917 0.122162856 -0.084156245 -0.10586828 -0.08782194
-0.042544495 -0.011272594 -0.11491409 -0.006999324 -0.043496728 -0.13991266 -0.09046628 -0.21239239
0.018631 0.05566246 -0.15702151 -0.38650313 -0.0081281215 0.078903876 -0.03461592 -0.17254992
-0.21034858 0.08884328 0.17858715 0.13226122 0.034597207 0.061459426 0.040119354 -0.08826407
-0.09726485 0.14202406 0.24683192 0.22412476 -0.021482166 -0.01614282 0.06845509 0.20758049
0.047205623 0.067242935 0.12571667 0.06478064 0.12962931 0.08242197 0.20098211 0.13882717
0.1616762 0.14699204 0.20430672 0.19822946 0.05262024 -0.07043537 0.02676242 -0.02155947
0.1847358 0.3794598 0.22524875 0.10777376 0.22423081 0.1883323 0.07401891 -0.16074264
0.018337276 0.024473796 0.208892 -0.09080595 0.18799339 0.083534464 -0.09969584 -0.20209706
-0.21791881 -0.16833189 0.21675538 0.22064732 0.013309048 -0.0774863 0.08936027 -0.2340683
-0.3659681 -0.32499942 -0.43504557 -0.03145113 -0.03620242 -0.09120318 -0.2601142 -0.4953328
-0.21866 -0.2782012 -0.16568665 -0.1317887 -0.17315046 -0.15515603 -0.19289361 -0.2647856
-0.1934519 -0.5551173 -0.2990873 -0.24568343 -0.18326426 -0.13806096 -0.11143844 -0.12188927
-0.24330227 -0.1916335 -0.3523811 0.0034531956 -0.026146578 -0.1065148 -0.04199402 -0.009287883
0.010497053 0.010598656 -0.006703286 -0.08352769 -0.02663559 -0.04326516 -0.009108021 -0.058939796
00000000: 5a4d 893d 90d9 113e 6bf7 493e c3e9 ca3e
00000010: 707f 463e 2a49 df3c 75cf ecbb 955f 97bd
00000020: 101a 5d3c 0a1c 7fbd f755 b4be 043a 483e
00000030: 2c6a c63e d8a4 563e 0aa6 3bbe 5388 cc3d
00000040: cc97 203e 7a8d b83d ab27 90be b3ef 4cbe
00000050: 1828 c3be a95f 00be d658 99bc 6c86 eebb
00000060: 5fba e4bc 9a82 a43d 57ff 2a3b 04fe bd3d
00000070: 07b8 43be 3930 86be 47da 1bbe a733 74be
00000080: f738 efbc a339 4dbe 76a8 033d fafa 27be
00000090: 96dc 26be f670 80be e448 5abd ff6c d7be
000000a0: a2ac 653b 41fd 453e 2d58 79be c9db 74be
000000b0: 5637 bcbd 6f88 03be 230d 8bbe 6c83 d9bd
000000c0: f803 b9be 871f fbbe 85b1 bebd a803 07bf
000000d0: 7a40 66be 771f 00be 51ab cfbd e6cb 60be
000000e0: 8c40 e2bc ef21 1cbe 8a79 b1be b17f d5be
000000f0: a618 d9be 8348 81bd 7653 fabc 0cc8 90bd
00000100: 10ef 0c3e df79 a83d 49d1 723e 370f 48bb
00000110: 9255 0bbe 0f98 61be c0ea 2ebd 0dd6 77bd
00000120: 794f 9ebd 0b36 9ebd 85bc 393d 3bc9 fc3c
00000130: 036c 1bbf 4043 21bf 6e82 8cbe 2ec8 86bd
00000140: 9dbc d3bd cfb6 16be 3192 103e 9028 c33d
00000150: cde3 ba3d b5d7 873d fe62 5f3e 0975 d03d
00000160: 9b33 983d 8c2e c33d 997c 0ebe 84b8 fbbb
00000170: f68e 12be f387 49be 2835 12be e7ce 6bbe
00000180: d8fc cd3d daeb 683c 9c1b 043d d0df d2bd
00000190: d566 26bd 536a 05bc 675a 0bbe d89e d0bd
000001a0: 9f3f fcbc 18a5 283b 38f7 a23d 6681 6b3d
000001b0: 5107 cbbe 23a7 eabd 9c0a 84bd 7e01 10be
000001c0: 981a 733c 4a0b d3bd 32f7 dcbd 745a bdbd
000001d0: 7660 203b 540b 8fbd 91b8 603d 70c3 18be
000001e0: 38ea 11be 1dbb 4cbe bf85 a7be 5295 a43b
000001f0: 6db7 3abe 0ae7 aebc 5007 c9bd 9038 b03d
00000200: 73ff 3abb f108 c4bd 194e 02bd 8945 75bd
00000210: b849 5dbd e7ed 16be badd 293d 7ea6 26be
00000220: 742f fe3d 9c33 073d cb72 9e3d ca27 a1bd
00000230: 8530 fa3d 1c5a acbd 78d1 d8bd fddb b3bd
00000240: 2343 2ebd b0b0 38bc 1458 ebbd 965a e5bb
00000250: a029 32bd 4445 0fbe 6346 b9bd 647d 59be
00000260: 0aa0 983c 52fe 633d 3fca 20be bde3 c5be
00000270: d02b 05bc 5b98 a13d 6cc9 0dbd edb0 30be
00000280: 9e65 57be 77f3 b53d 8ddf 363e 7c6f 073e
00000290: cdb5 0d3d e1bc 7b3d 3154 243d cbc3 b4bd
000002a0: cb32 c7bd c16e 113e 82c1 7c3e f680 653e
000002b0: 5efb afbc f23d 84bc 2f32 8c3d fb8f 543e
000002c0: af5a 413d aab6 893d dfbb 003e b6ab 843d
000002d0: 8cbd 043e dacc a83d 41ce 4d3e b628 0e3e
000002e0: 728e 253e 1585 163e c835 513e aafc 4a3e
000002f0: 5288 573d 6b40 90bd dd3c db3c 7c9d b0bc
00000300: 622b 3d3e 8e48 c23e 9ca7 663e 7db8 dc3d
00000310: c39c 653e 2fda 403e 3a97 973d b899 24be
00000320: 0e38 963c 457d c83c c9e7 553e 78f8 b9bd
00000330: 5781 403e 1e14 ab3d 552d ccbd 88f2 4ebe
00000340: 1c26 5fbe 325f 2cbe 1ff5 5d3e 5ff1 613e
00000350: 310e 5a3c 23b1 9ebd 8402 b73d 9aaf 6fbe
00000360: 2c60 bbbe 5366 a6be 4bbe debe e6d2 00bd
00000370: fd48 14bd bcc8 babd b02d 85be 439c fdbe
00000380: 68e8 5fbe 6370 8ebe c3a9 29be 9ef3 06be
00000390: 5b4e 31be 39e1 1ebe e785 45be fa91 87be
000003a0: 4118 46be 2b1c 0ebf f821 99be 7094 7bbe
000003b0: a0a9 3bbe da5f 0dbe d639 e4bd 15a1 f9bd
000003c0: 3b24 79be 923b 44be 4c6b b4be 024f 623b
000003d0: 5931 d6bc 6e24 dabd ec01 2cbd 342c 18bc
000003e0: d5fb 2b3c fca5 2d3c 3da7 dbbb 9110 abbd
000003f0: e132 dabc cf36 31bd cf39 15bc db6a 71bd

fc1.bias f4 [7]
-0.06297711 -1.224934 -0.21750833 0.3939949 0.23418362 0.3114022 -0.38376617
00000000: 25fa 80bd a3ca 9cbf 81ba 5ebe b3b9 c93e
00000010: d5cd 6f3e 1c70 9f3e 007d c4be
